Tables/DQN.pt (torch, 9527 bytes, 6 tensors)

fc1.weight f4 [32, 4]
000000 56 31 a2 3e e8 86 a3 3d 40 e0 e9 3e f5 7f 74 be
       0.31678265 0.07984716 0.45678902 -0.23876937
000010 a5 c5 d2 3e 04 80 b7 3e 1e 4b 6c 3e 82 47 62 3d
       0.41166416 0.35839856 0.2307553 0.055243976
000020 12 d3 47 3f 17 21 52 3d 81 23 3c bf df 85 77 bb
       0.7805644 0.05130109 -0.73491675 -0.0037769002
000030 69 e9 10 be e5 ac dc be f8 91 68 bf ec f7 96 be
       -0.14151539 -0.43100658 -0.9084773 -0.29486024
000040 0e fe c2 be a6 c6 cd 3e fa 97 c4 be 32 a0 ce 3e
       -0.38084453 0.4019062 -0.383972 0.40356594
000050 f2 2b e5 3e 26 19 9d 3e ef 69 6d bf 76 5e 51 be
       0.4476009 0.3068325 -0.92739767 -0.2044619
000060 3e 53 60 bf 17 2e 88 3d ff 84 88 3f 80 c0 f3 bc
       -0.8762702 0.06649416 1.0665587 -0.029754877
000070 15 9c 34 bd 5e 11 2f bd f8 73 9e bd fb 2c d8 3d
       -0.044094164 -0.042741172 -0.07736963 0.10555454
000080 a9 1d ec 3b 70 c3 c5 bb 2f 32 fe be a5 26 ff bd
       0.007205684 -0.006035261 -0.49647662 -0.12458543
000090 da f5 8c 3e 4f d1 43 bf df 96 90 bf 2e ff 30 bf
       0.2753132 -0.76491255 -1.1296042 -0.69139373
0000a0 52 21 08 bf a9 33 14 3f cb b6 a3 3e 3f 74 c1 3e
       -0.5317584 0.5789133 0.31975397 0.37784
0000b0 07 09 dd 3e 33 05 2c be 5d 24 70 be e3 e3 86 be
       0.4317095 -0.16798858 -0.23451371 -0.2634574
0000c0 bf ea 2b bf f7 c7 c3 3e 38 2b f6 3f bd 3f eb 3e
       -0.6715507 0.382385 1.9231939 0.45947066
0000d0 8f ed 94 3e 6b 64 40 3e ed c9 1a bd ce 38 69 3e
       0.29087493 0.18788306 -0.037790228 0.22775576
0000e0 38 a8 31 be 9e c2 bd be 63 77 b2 3e 8a 4b b1 be
       -0.17349327 -0.37062544 0.3485671 -0.34627944
0000f0 03 94 63 3e 30 16 be 3e 8b be cb be 44 cf c0 bd
       0.2222443 0.37126303 -0.3979381 -0.09414533
000100 fa e1 fd bd 4c 27 30 3d 6c d3 e8 3e a7 cb 70 3e
       -0.12396617 0.043006226 0.45473802 0.23515187
000110 cf 10 0a 3f 2a 6e 03 3f 87 71 ae 3f 0e 44 d4 3e
       0.539319 0.5133997 1.3628396 0.41458172
000120 d0 9d 14 3f 5f aa e9 3e cc 1b 54 3f 4a 8c ca 3e
       0.580533 0.45637795 0.82854915 0.39560157
000130 a8 71 60 3e 4e c0 90 bd 44 1c 61 3e 82 37 0c 3e
       0.21918356 -0.07067929 0.21983439 0.1369305
000140 14 84 bc 3e c8 44 2f 3e 28 e2 85 be 8f 0c ad 3e
       0.36819518 0.17116082 -0.26149106 0.33798644
000150 1a b9 ca bd 4a d3 cc 3d 5d 25 d3 3e c7 54 25 be
       -0.098985866 0.10001238 0.41239443 -0.16145621
000160 39 78 6a 3d d9 ed 02 bf 19 86 44 bf f3 c1 82 be
       0.05724356 -0.51144177 -0.76767117 -0.25538597
000170 f9 33 b2 3d b7 5f 42 3e 58 e6 d5 bd c8 e6 07 bd
       0.08701319 0.18981825 -0.10444325 -0.033179075
000180 93 8d 21 be ab 51 24 3e 33 9f 10 3f 1e 1d 3a 3e
       -0.15776663 0.16046779 0.5649292 0.1817517
000190 d1 4f 21 bf a6 9e 99 be 85 47 c6 bf 8d 75 7e be
       -0.63012415 -0.30003852 -1.5490576 -0.2484953
0001a0 41 a3 d3 3e f8 73 01 3e 8e af d8 3f a6 96 81 3e
       0.4133549 0.12641895 1.6928575 0.25310248
0001b0 f3 52 35 bd 13 12 c6 bd 65 d4 18 3f 83 b8 d2 bb
       -0.04426856 -0.09671416 0.5969909 -0.006430687
0001c0 64 6f 68 be 2b 86 e9 3e 6b 0b 27 3e c3 94 76 bd
       -0.22698742 0.45610175 0.1631295 -0.060200464
0001d0 e0 fc 2d 3f cb 0c 17 bf 75 50 86 bf 90 85 04 bf
       0.6796398 -0.59003896 -1.0493304 -0.517663
0001e0 a4 4a 83 bf c8 8a d3 3c 05 58 c3 3e 0d dc 36 3d
       -1.0257154 0.025823012 0.3815309 0.04464345
0001f0 7e 9a 9b 3f bf 38 7b 3e ba 96 84 be 5c a7 44 bd
       1.2156522 0.24533366 -0.25896245 -0.04801117

fc1.bias f4 [32]
000000 84 a1 2f 3f 97 d2 50 3f f1 dc ef 3d 2e 16 eb 3e
       0.6860583 0.81571335 0.11712063 0.4591536
000010 86 b2 e2 be d6 c4 03 bf f1 36 9a be 08 2c 33 3f
       -0.44276828 -0.5147222 -0.30120042 0.6998906
000020 ad 1b 13 3f 03 7c 8b 3e 26 18 38 3f 5d e5 19 3f
       0.57464105 0.2724305 0.7191185 0.60115606
000030 af 01 bf 3d 12 79 2f 3f a0 1a de 3e 7a c8 ce be
       0.09326493 0.68544114 0.43379688 -0.40387326
000040 29 a0 6c 3f 1d cc 7c 3d af 79 05 3d 8d d2 43 3f
       0.92431885 0.061718095 0.03258675 0.7649315
000050 a3 a1 63 3f c7 33 21 3f 58 0a 20 3f 88 fe 1e 3f
       0.88918513 0.6296963 0.62515783 0.62107134
000060 95 3e 10 3f b5 0b b6 3e 7e 56 03 be c4 60 1a 3f
       0.5634549 0.35555807 -0.12825963 0.603039
000070 32 b6 06 3f 89 8f c0 3d d4 f7 ab 3d ee 0f 5e be
       0.5262176 0.09402377 0.08396879 -0.21685764

fc2.weight f4 [50, 32]
000000 9c 9f 8a 3e dd 46 54 3e 33 5c 22 3b e0 b9 96 3e
       0.27074897 0.20730157 0.0024774193 0.29438686
000010 46 90 bd bd de bd 97 3d 59 2e 8d be 35 dc 12 3f
       -0.092560336 0.07409261 -0.27574423 0.5736726
000020 6c d3 21 3e c4 21 be be fa 8e 56 3e 6d 70 f1 3d
       0.15803307 -0.37135136 0.20952979 0.11789022
000030 fb ba a0 be 71 ab 0b 3f 38 7a 05 3f f6 3e 55 3e
       -0.31392655 0.54558474 0.52139616 0.20824799
000040 c1 d7 a3 3e 6b ea 16 bf 69 0b 33 bf ca e7 05 3f
       0.32000545 -0.58951443 -0.69939286 0.5230681
000050 f8 88 84 3e 32 6d 10 3e 32 1f a8 3e c7 53 af 3e
       0.2588575 0.14104155 0.328363 0.34243605
000060 18 26 b3 3e 95 96 3a 3c ca ff 1f bf e4 ee ca 3e
       0.3499 0.011388441 -0.6249968 0.39635384
000070 5b a3 5e 3e d7 93 52 bf 21 42 0b be 3a 5e e0 bb
       0.21742003 -0.82256836 -0.13599445 -0.00684717
000080 32 02 dc 3d 98 cd 39 bd f5 f7 f0 3d 7f f9 07 bd
       0.10742606 -0.045362085 0.11766044 -0.033196922
000090 5c 9f 83 bd 86 39 13 3c 0d 9b 31 3e 0b 3a a4 bd
       -0.0642688 0.008985883 0.17344303 -0.08018883
0000a0 c1 8b 09 bd c8 cf 15 be f7 5a 26 be 80 7c cf 3d
       -0.033580545 -0.14630044 -0.16245638 0.10131168
0000b0 d6 77 e6 3d 65 92 e8 bd e0 91 aa 3d d6 18 fb bd
       0.11253326 -0.113560475 0.08328605 -0.122605965
0000c0 6b 30 2a be aa b0 90 bd 0a 23 45 3d 93 d2 af 3d
       -0.16620032 -0.07064946 0.04812912 0.08585086
0000d0 fa 67 d4 bd 63 0a df ba 38 79 25 be d6 9d 3f 3d
       -0.103713945 -0.0017016645 -0.16159523 0.046781383
0000e0 4c 34 6f be 74 e9 23 be 9e 3f 32 be c4 da a6 3b
       -0.23359793 -0.16007024 -0.1740708 0.005091997
0000f0 09 dc 16 be ec ca 1a 3d b8 67 ec bd 5b b4 3b 3b
       -0.14732374 0.037791178 -0.1154322 0.0028641436
000100 6e f6 14 3e b7 54 59 be d7 9d 25 3e cd 3e 12 3f
       0.1454713 -0.21223722 0.16173492 0.57127076
000110 c2 61 d0 3d e4 5e bb 3e 30 ee bf be 31 14 c0 bd
       0.10174896 0.36595833 -0.3748641 -0.09378851
000120 c1 0d c3 3e 02 40 08 3f 5c 5d b6 be 90 ce 7f 3e
       0.3809643 0.5322267 -0.35618103 0.24981141
000130 d5 27 80 be 3d 37 cb be 56 a8 f9 3d 44 7e e5 3e
       -0.2503039 -0.3969058 0.12190311 0.44822896
000140 be f4 67 be d0 21 0a 3e 15 80 b2 3d 67 f8 29 bd
       -0.22651955 0.13489461 0.08715836 -0.04149666
000150 89 d7 09 be 20 83 32 bd bf 08 08 3f d7 20 3c 3e
       -0.13461126 -0.04358208 0.53138345 0.18371902
000160 07 3c f3 be 3b 17 c8 3e 52 90 19 bb 31 cc b4 be
       -0.47506735 0.39080223 -0.002343197 -0.35312036
000170 07 dc 30 3e 46 19 54 3f 71 59 c0 be f1 4f 29 3e
       0.17271434 0.82851064 -0.37568238 0.16534401
000180 1a 0c 68 3e 58 f4 da 3e 9e 5b 06 bd 77 14 7c 3e
       0.22660866 0.42764544 -0.032802217 0.24617182
000190 11 bf 28 3e ed 5e 21 be c2 6a 03 bf 56 f3 ff 3e
       0.16479136 -0.15758868 -0.51334774 0.49990338
0001a0 c8 e6 c8 3e ac 5f 0d bf b0 10 21 3e e8 88 d1 3e
       0.39238572 -0.5522411 0.15729022 0.40924764
0001b0 4c a8 b3 be f4 f2 f9 3e aa 32 35 3e 4c 78 ae 3e
       -0.35089338 0.4881817 0.17695108 0.34076154
0001c0 15 08 e6 3e 1e 29 33 bf 31 c4 11 bf 02 ba bd 3e
       0.4492804 -0.69984615 -0.5693999 0.37055975
0001d0 5f ae 82 3e 44 45 59 3e 3b 53 7e 3e ae 71 b5 3e
       0.2552366 0.21217829 0.24836437 0.35438293
0001e0 44 5e a4 3e d0 da 76 bd 51 d8 eb be 83 31 ff 3e
       0.3210317 -0.06026727 -0.46063474 0.49842462
0001f0 03 cd 88 3d 3e 13 22 bf 6b 50 a0 be 64 c0 f8 bd
       0.06679728 -0.6331061 -0.31311354 -0.121460706
000200 d1 ae 39 bd 16 21 8d be 97 97 9c bf dd 21 9d be
       -0.045332734 -0.27564305 -1.2233762 -0.30689898
000210 ae 2c ae 3d c6 a6 0a bf f8 48 c6 3c 1a d9 22 3e
       0.08504616 -0.54160726 0.024204716 0.1590313
000220 04 19 4e 3d a0 60 55 bf 1d b5 83 3e b1 31 1b be
       0.050316826 -0.83350563 0.25724116 -0.15155675
000230 9e a5 13 3d ee b9 53 3e dd 96 e8 3e e0 df 86 bf
       0.036046617 0.20676395 0.454276 -1.0537071
000240 60 35 e8 3e 91 d1 fb be ea a6 c9 be 41 33 b4 3e
       0.45353222 -0.49183324 -0.39385158 0.35195354
000250 0e cd d1 bb d8 d0 3d 3e 2b 6c 4c 3e df 15 32 bc
       -0.0064026183 0.18536699 0.19963138 -0.010869472
000260 c0 29 e1 3e 97 17 6c bf dd 62 aa be 48 f0 98 3e
       0.43977165 -0.92223495 -0.33278552 0.2987082
000270 08 11 02 be 91 fe 56 bf 60 5a 53 3e 47 d8 35 bf
       -0.1270181 -0.8398219 0.20639944 -0.7103314
000280 13 d6 a0 3e d8 d8 93 3e e6 c8 12 3e 6f ce c9 bf
       0.31413326 0.28876376 0.14334449 -1.5766124
000290 1c fc 09 be b8 95 86 3d ce 35 2f 3e 5a 41 28 3e
       -0.13475078 0.06571525 0.17110369 0.1643118
0002a0 51 cb 26 bd 0f 75 21 bf 29 8c 5f 3e 0e c6 42 be
       -0.04072124 -0.6306924 0.2183081 -0.19020864
0002b0 46 aa 25 3f cb 71 f7 3e 8d 19 64 be b1 fd 42 bf
       0.6471294 0.48329005 -0.22275372 -0.7616835
0002c0 b4 82 2f 3e 3e 87 25 3f 6e 52 fa 3e 69 31 99 3e
       0.17139703 0.6465949 0.48891014 0.2992051
0002d0 be ba 59 3e 9a d2 be 3e 86 2a 89 bf 2b 6f 4d 3e
       0.21262643 0.3727005 -1.0716102 0.20061938
0002e0 c0 8f e3 3e 0f ce 74 bf a2 a2 2b 3f 8b 81 79 3e
       0.4444561 -0.9562692 0.6704503 0.24365823
0002f0 a5 3a dc 3d 59 fb 95 3e c2 38 4d be 81 0e 31 3e
       0.10753373 0.29293326 -0.20041183 0.17290689
000300 3d df 58 3e df 49 94 3e fe ab 97 be 61 89 34 be
       0.21178909 0.2896261 -0.29623407 -0.17630531
000310 fc 30 33 3d 9a 8b 50 be 26 83 34 bf 6e 47 5d 3e
       0.043747887 -0.20365754 -0.70512617 0.2160928
000320 6c 8d c7 3d 0a a6 38 bf 3f e2 e7 3e 46 6c 56 3e
       0.09743771 -0.72128356 0.452898 0.2093974
000330 08 a0 28 bf fe 71 d1 3e 27 c0 69 3d d1 8a 1e 3e
       -0.6586919 0.40907282 0.057068016 0.15482642
000340 3d d8 00 3f 2a ef 5b bf bf 4a 12 bf 8d 9f 87 3e
       0.50329953 -0.8591181 -0.57145303 0.26488915
000350 e2 7b 09 3f f2 1b a4 3d ed 2c 67 3c 02 f5 0b 3e
       0.53704655 0.08013143 0.014109832 0.13667682
000360 5b e5 ee 3e ac 6f 2a bf fb 43 38 bf a9 ad 92 3e
       0.4665936 -0.6657665 -0.7197873 0.28648117
000370 6b 28 b1 3a ff 78 55 bf 06 60 22 bf bc 8e 05 3c
       0.0013516074 -0.8338775 -0.6342777 0.008151706
000380 5b 7a 82 3e df 69 89 3e 16 30 b6 3c 49 52 c3 3d
       0.25483975 0.26838586 0.022239726 0.09537179
000390 a8 97 fe 3c b6 b5 8f be 8b 96 29 be e8 04 fc 3e
       0.031078175 -0.28068322 -0.16561334 0.49222493
0003a0 68 53 c5 3e ed ed c0 be 93 81 ae 3e d0 95 9c 3e
       0.38540196 -0.37681523 0.34083232 0.30583048
0003b0 8d 56 c5 be b9 80 13 3f 74 c0 ce 3e 43 2a 89 3c
       -0.38542596 0.5761829 0.40381205 0.016743785
0003c0 b2 f7 ed 3e d7 a1 27 bf 9b 6f 03 bf 97 57 aa 3e
       0.4647804 -0.65481323 -0.5134217 0.3326995
0003d0 70 6f 06 3f 56 32 59 3e 5f 6c 9e 3e e6 8f 8e 3e
       0.5251379 0.21210608 0.30942056 0.2784416
0003e0 cf 5a 5f 3e 9a 07 78 bc 2e c4 06 bf 77 40 99 3e
       0.21811984 -0.015138531 -0.52643096 0.29931995
0003f0 6a 30 9a 3e 2b 62 2c bf aa 48 34 be d0 b3 09 be
       0.30115062 -0.6733729 -0.17605844 -0.134475

fc2.bias f4 [50]
000000 86 a5 39 3e e9 fc e7 3d ea 46 20 3e c5 2a df 3e
       0.18129548 0.11327536 0.15652052 0.43587318
000010 77 ab 3d 3e 44 5e 44 3e 8d 4e c0 3e 77 93 e0 3e
       0.1852244 0.19176584 0.3755993 0.43862507
000020 b0 57 f3 bd 20 a9 05 be 5e 8d 79 3e a5 0e 2d 3e
       -0.118819594 -0.13052797 0.24370334 0.16900118
000030 99 63 49 bd c9 77 8f bd 97 89 ed 3e 5c 64 b8 3e
       -0.04916725 -0.07005269 0.46394035 0.36014068
000040 00 00 e2 3d 83 f6 d3 bd bc 3e 92 3e 16 96 97 3e
       0.11035156 -0.10349753 0.28563488 0.29606694
000050 50 43 2e 3e f9 33 e0 3e d1 41 81 3e 50 57 22 be
       0.17017865 0.43789652 0.25245526 -0.1585362
000060 52 fe 42 be 82 cd 44 3e ba f2 8e bd 13 2a 9c 3e
       -0.19042328 0.1921902 -0.0697989 0.3050085
000070 d4 88 51 3d 1f 89 c8 3d 22 3a 71 3e df 1f 06 3e
       0.05115588 0.09791779 0.23557332 0.13098095
000080 9d b6 0a 3e 1d ef 44 3e 06 d6 25 3d fa ff e3 3e
       0.13546224 0.1923184 0.04048731 0.44531232
000090 b7 47 1e be 7b bb b2 bd 48 7d 6a 3e 82 9c f7 bd
       -0.15457045 -0.08727165 0.22899354 -0.12090398
0000a0 1f 43 ab 3e af 2b 89 3e 32 75 d1 bb 00 43 77 3a
       0.33449647 0.2679114 -0.0063921446 0.0009432286
0000b0 3e 71 b2 3e 9f 65 a9 3e ca 55 ca 3d 84 ce 9b 3e
       0.34852022 0.33085343 0.09879644 0.30430996
0000c0 4d 96 df 3e e0 7f 89 3e
       0.43669358 0.26855373

fc3.weight f4 [2, 50]
000000 ac 08 a8 3e ba b5 3e bd 8e 57 36 bf d9 e5 ea 3e
       0.32819116 -0.046560027 -0.7122735 0.45878485
000010 34 60 06 bf cc 11 21 bf 39 fc e1 3e b8 89 09 3f
       -0.52490544 -0.6291778 0.44137743 0.5372577
000020 1d 9e 26 bf 74 dc 79 bd e6 00 04 3f 76 9f a0 be
       -0.6508501 -0.061001256 0.5156387 -0.3137166
000030 96 be 6f be 18 c8 b6 3d c4 d9 ef 3e 13 70 cb 3e
       -0.23412547 0.089248836 0.4684583 0.39733943
000040 81 ec 28 3d 02 82 65 bf 9a 7e 01 3f da 93 d4 3e
       0.041241173 -0.896515 0.50583804 0.41519052
000050 b9 2e 19 bf a0 1c b0 3e 22 f9 e1 3e a2 a4 67 bd
       -0.5983692 0.3439684 0.44135386 -0.05655349
000060 3c a6 26 3d 8d f3 14 3f 31 f3 85 3d be 22 b9 3e
       0.040685877 0.5818413 0.06540526 0.3615932
000070 80 6c e6 3b 3f d7 c8 3d 51 ce 25 bf b4 f0 d5 bd
       0.007031977 0.0980668 -0.6476794 -0.10446301
000080 50 07 25 bf e2 29 e0 3e e4 84 cd 3c 3a 9d 06 3f
       -0.64464283 0.43781954 0.025087781 0.5258366
000090 9c 59 ce bd bf fc 0d 3f a7 3c f1 3e fc 2d 3c 3d
       -0.100756854 0.55463785 0.47116587 0.04594229
0000a0 da 05 0d 3f 8f 35 01 3f ef 3c 1a be 90 12 cd 3d
       0.55087054 0.5047235 -0.15062307 0.10013306
0000b0 77 11 c5 3e 5c f9 0f 3f 70 2a 9d 3e 9c db b8 3e
       0.38489887 0.5623987 0.3069644 0.3610505
0000c0 51 d2 07 3f 67 41 01 3f 4c 9e d8 3e 5b fd 9c bd
       0.5305529 0.5049042 0.4230827 -0.07665511
0000d0 4a 96 23 bf a9 5a dd 3e 7c 6b 3b 3e 24 4d c5 be
       -0.639012 0.4323323 0.18302721 -0.38535416
0000e0 a8 de fb 3e 05 a7 d8 3e 1b 55 be be 7a b7 0c be
       0.4919331 0.42314926 -0.37174305 -0.13741866
0000f0 f8 84 13 3f ac f6 2c bf 1b 8c 1e bf 9a c9 ea bd
       0.5762477 -0.6756389 -0.61932534 -0.11464234
000100 47 b4 0a 3f 0c 0f 06 3f 99 c3 34 bd 9d f8 4d bf
       0.5418133 0.5236671 -0.04413185 -0.8045748
000110 5d 8b 9c 3e c5 aa 2c 3f 51 1d fd be 21 03 c3 3e
       0.30575076 0.67448074 -0.4943643 0.38088325
000120 a4 d9 00 3f 68 48 e6 bd d6 9a 4f bd 6e f8 e3 3e
       0.50332093 -0.11244279 -0.050684772 0.44525474
000130 a3 ac 01 be 7a 19 c2 3e 9a 48 f3 3d 11 2b 81 bd
       -0.12663512 0.37910062 0.11879082 -0.063070424
000140 0c 78 90 be ec c4 05 bf 36 d9 4c be 86 f7 ec 3e
       -0.28216588 -0.52253604 -0.20004734 0.46282595
000150 8a 45 4a bc 1c 97 39 3f 3c 2b d2 3d b7 26 fc be
       -0.012345681 0.724962 0.102621526 -0.49248287
000160 7e 29 ef 3e 46 3d e1 bd 1f 33 d8 3e c5 7b ca 3e
       0.46711344 -0.10998015 0.42226502 0.39547554
000170 5b a6 5d bf b2 14 91 3d 61 c5 0b 3f 0e 49 c9 3e
       -0.86581963 0.070840254 0.5459805 0.3931355
000180 b3 7a 05 bf c1 c3 f8 3e ac 4d 01 3f 81 4d 89 3e
       -0.5214035 0.48586848 0.5050914 0.26816943

fc3.bias f4 [2]
000000 c5 99 5d 3e 5e 04 6e 3e
       0.2164069 0.23243853
